models/behavior_classifier.pth (torch, 2245 bytes, 2 tensors)

classifier.0.weight f4 [4, 8]
-0.010779397 -0.017096544 -0.0007700832 -0.0072683482 -0.038297515 -0.048160523 -0.042081658 -0.0059961453
-68.02212 -149.6099 -1380.0071 238.23045 -171.44122 4970.883 -1642.8959 188.28151
-446.71738 31.849913 5364.528 -63.574024 -838.7162 -539.5041 -2924.3208 -29.850708
514.7757 117.76576 -3984.4946 -174.61996 1010.2372 -4431.3613 4567.27 -158.43587
00000000: 119c 30bc 0d0e 8cbc 69df 49ba 532b eebb
00000010: dbdd 1cbd f843 45bd d15d 2cbd 507b c4bb
00000020: 530b 88c2 229c 15c3 3a80 acc4 ff3a 6e43
00000030: f470 2bc3 1057 9b45 ab5c cdc4 1148 3c43
00000040: d35b dfc3 9fcc fe41 39a4 a745 cd4b 7ec2
00000050: d6ad 51c4 43e0 06c4 22c5 36c5 40ce eec1
00000060: a5b1 0044 1288 eb42 ea07 79c5 b69e 2ec3
00000070: 2e8f 7c44 e47a 8ac5 29ba 8e45 956f 1ec3

classifier.0.bias f4 [4]
-0.00023560702 25.647926 -6.7173 -18.930378
00000000: 470d 77b9 f42e cd41 1ff4 d6c0 6a71 97c1
